…
   "cell_type": "code",
   "execution_count": 234,
   "metadata": {
    "colab": {
     "base_uri": "https://localhost:8080/"
    },
    "id": "QQ4HiK_F59Zd",
    "outputId": "3fed5a34-64f9-40bb-8361-f068559b6db7"
   },
   "outputs": [
    {
     "name": "stdout",
     "output_type": "stream",
     "text": [
      "Model: \"sequential_42\"\n",
      "_________________________________________________________________\n",
      "Layer (type)                 Output Shape              Param #   \n",
      "=================================================================\n",
      "embedding_36 (Embedding)     (None, 150, 100)          18825700  \n",
      "_________________________________________________________________\n",
      "spatial_dropout1d_11 (Spatia (None, 150, 100)          0         \n",
      "_________________________________________________________________\n",
      "simple_rnn_5 (SimpleRNN)     (None, 150, 25)           3150      \n",
      "_________________________________________________________________\n",
      "batch_normalization_9 (Batch (None, 150, 25)           100       \n",
      "_________________________________________________________________\n",
      "dropout_31 (Dropout)         (None, 150, 25)           0         \n",
      "_________________________________________________________________\n",
      "global_max_pooling1d_10 (Glo (None, 25)                0         \n",
      "_________________________________________________________________\n",
      "dense_56 (Dense)             (None, 50)                1300      \n",
      "_________________________________________________________________\n",
      "dense_57 (Dense)             (None, 6)                 306       \n",
      "=================================================================\n",
      "Total params: 18,830,556\n",
      "Trainable params: 4,806\n",
      "Non-trainable params: 18,825,750\n",
      "_________________________________________________________________\n"
     ]
    }
   ],
   "source": [
    "model.summary()"
   ]
  },
  {
   "cell_type": "code",
   "execution_count": 235,
…
